app/model.pth (torch, 410075 bytes, 630 tensors)

prescalers.encoder_length.weight f4 [8, 1]
0	0xbe42702a	-0.189881
1	0xbbc5d49b	-0.0060373074
2	0x3f3c847a	0.73639643
3	0x3f1921f7	0.5981745
4	0x3f257e5f	0.6464595
5	0x3e99cbac	0.30038202
6	0xbef1f024	-0.47253525
7	0x3ec99252	0.39369446

prescalers.encoder_length.bias f4 [8]
0	0x3dab3366	0.08359413
1	0x3eb256f7	0.34831974
2	0x3f4acd1a	0.7921921
3	0x3f5a9e89	0.85398155
4	0xbf0042f1	-0.50102144
5	0xbf544bc1	-0.8292809
6	0xbeefd132	-0.4683929
7	0x3ecd918f	0.40150115

prescalers.target_center.weight f4 [8, 1]
0	0x3f0e8d12	0.55684006
1	0xbd190060	-0.037353873
2	0x3dffe410	0.12494671
3	0x3f54b788	0.83092546
4	0xbf15df20	-0.58543587
5	0x3e01f9d8	0.12692964
6	0xbf38a740	-0.72130203
7	0x3f03c242	0.5146829

prescalers.target_center.bias f4 [8]
0	0xbf7c7230	-0.98611736
1	0xbf11dcca	-0.5697752
2	0xbe20385f	-0.15646504
3	0x3f131e9a	0.5746857
4	0xbf7a2972	-0.9771949
5	0xbe538913	-0.20657758
6	0xbf1db77d	-0.61608106
7	0xbf60edd2	-0.87862885

prescalers.target_scale.weight f4 [8, 1]
0	0xbef07338	-0.46962905
1	0x3dc40c40	0.09572649
2	0x3f766f60	0.96263695
3	0x3ec233a0	0.37930012
4	0x3e887104	0.26648724
5	0xbdc6b3e0	-0.09702277
6	0xbea5c334	-0.3237549
7	0xbf7d7650	-0.99008656

prescalers.target_scale.bias f4 [8]
0	0x3dc7a3d6	0.09748046
1	0xbed88d58	-0.42295337
2	0xbd8be5c2	-0.06830932
3	0xbdefbef7	-0.117063455
4	0x3f6b25b2	0.91854393
5	0x3e95888f	0.29205748
6	0xbf13b83a	-0.5770298
7	0x3eb00a5e	0.3438291

prescalers.time_idx.weight f4 [8, 1]
0	0xbd5fab51	-0.05460674
1	0x3dae7436	0.08518259
2	0xbb02bf52	-0.0019950462
3	0xc0227b4a	-2.538775
4	0xc04f3a4a	-3.2379327
5	0x3fcf3d26	1.6190536
6	0xc099cc43	-4.8061843
7	0x403bed64	2.9363642

prescalers.time_idx.bias f4 [8]
0	0x3c9d523e	0.019204255
1	0xbd8811a2	-0.06643988
2	0xbb15d4a4	-0.002286234
3	0x3ea60a64	0.32429802
4	0xbf12acb7	-0.5729479
5	0x3e7be096	0.24597391
6	0x3efd2cd9	0.4944828
7	0xbf9983a4	-1.1993299

prescalers.hour.weight f4 [8, 1]
0	0x3fd91905	1.696076
1	0xbfc58e10	-1.5433979
2	0xbf6fe5b2	-0.9370986
3	0xbecd3a36	-0.40083474
4	0xc001dda5	-2.029153
5	0x3f1e2e51	0.61789423
6	0x3fa26064	1.2685666
7	0x3fa2bfa9	1.271474

prescalers.hour.bias f4 [8]
0	0x3ebecee1	0.3726721
1	0xbe8cc8d9	-0.27496985
2	0xbcacfa4b	-0.021115443
3	0xbe96ebb5	-0.29476705
4	0xbf11dc3e	-0.5697669
5	0xbe1a269b	-0.1505379
6	0xbe6a55e1	-0.22884323
7	0x3da5ab0a	0.08089264

prescalers.hour_sin.weight f4 [8, 1]
0	0x3f4cca62	0.7999631
1	0xbe43f11e	-0.19134948
2	0xbfc54e02	-1.5414431
3	0xbe3412b4	-0.1758526
4	0xbdd6e631	-0.10493124
5	0x3f4a1b9f	0.78948396
6	0x3dba53b6	0.09097998
7	0x3d2957ce	0.041343503

prescalers.hour_sin.bias f4 [8]
0	0xbf5f3e15	-0.87204105
1	0x3f7eeca5	0.9957984
2	0x3f2b5736	0.6692995
3	0x3e775d1d	0.24156614
4	0xbff0c9bb	-1.8811563
5	0x3fde3e7f	1.7362822
6	0x3e8ba767	0.27276155
7	0xbf60543f	-0.8762855

prescalers.hour_cos.weight f4 [8, 1]
0	0x3f5dc256	0.8662466
1	0xbf90b637	-1.1305608
2	0xbf32ee52	-0.698949
3	0xbab43b60	-0.0013750605
4	0x3dc997b0	0.09843385
5	0x3f31bf93	0.69432944
6	0xbf958df2	-1.1683943
7	0x3e2d3a2d	0.16916724

prescalers.hour_cos.bias f4 [8]
0	0x3d3c1d1f	0.04592621
1	0xbe047be1	-0.12937881
2	0x3f51cb67	0.8195099
3	0xbf11cccc	-0.5695312
4	0xbc9f516d	-0.019448007
5	0xbeabaa08	-0.3352816
6	0xbf39f4b8	-0.72639036
7	0xbd9d9709	-0.07694823

prescalers.dayofweek.weight f4 [8, 1]
0	0xbe30f001	-0.17279054
1	0xbe6cae48	-0.23113358
2	0xbf82231b	-1.0166963
3	0x3fab41fd	1.3379513
4	0x3f069636	0.52572954
5	0xbf93e0ad	-1.1552941
6	0xbe3f426b	-0.1867768
7	0x3f33adec	0.7018726

prescalers.dayofweek.bias f4 [8]
0	0x3e12dae2	0.1434131
1	0x3e4004e6	0.18751869
2	0x3f24c22a	0.6435877
3	0xbf31cffe	-0.69457996
4	0xbf49a219	-0.78762966
5	0x3e92c04d	0.2866234
6	0x3e3a6a8c	0.18204707
7	0xbd9e0ec5	-0.07717661

prescalers.relative_time_idx.weight f4 [8, 1]
0	0xbf99c66d	-1.201368
1	0xc0280642	-2.625382
2	0x3f0e8377	0.5566935
3	0x3e62f330	0.22163081
4	0x3fcfd847	1.6237878
5	0xbfe12923	-1.7590679
6	0xbf49220c	-0.78567576
7	0x3f03e8ad	0.5152691

prescalers.relative_time_idx.bias f4 [8]
0	0xbec00586	-0.37504214
1	0xbf1eff24	-0.62108064
2	0x3d3c89ce	0.04602986
3	0xbe3c6650	-0.18398404
4	0xbda1346c	-0.07871327
5	0x3e52b6e2	0.20577577
6	0xbe032b32	-0.12809446
7	0xbee2836b	-0.4424089

prescalers.Humidity.weight f4 [8, 1]
0	0xc003d128	-2.059641
1	0xbfd16e83	-1.636185
2	0x3fe32b14	1.7747521
3	0x3ff86c2c	1.9408011
4	0xbe0614d0	-0.13093877
5	0x3edeb044	0.43493855
6	0xbf0b8e67	-0.54514164
7	0xbf89891f	-1.0744971

prescalers.Humidity.bias f4 [8]
0	0x3e74f2b8	0.23920715
1	0xbeb0a094	-0.3449751
2	0xbf35ff7e	-0.71092975
3	0x3f0a401c	0.54004073
4	0xbe5fe885	-0.21866043
5	0x3f40af34	0.7526734
6	0xbf170837	-0.5899691
7	0xbe9fdb3b	-0.31221947

prescalers.Solar_Radiation.weight f4 [8, 1]
0	0xbeca15a4	-0.39469635
1	0xbf678421	-0.9043599
2	0xbfc45f60	-1.5341606
3	0x3f912150	1.1338291
4	0x3f2ea2b8	0.6821704
5	0x3cd38d74	0.025824286
6	0xbe473b09	-0.19456114
7	0xbf9ae07a	-1.2099755

prescalers.Solar_Radiation.bias f4 [8]
0	0x3d343711	0.043997828
1	0xbf45d068	-0.7727113
2	0xbf598179	-0.84963185
3	0x3ece53bf	0.40298268
4	0x3f0f1ae6	0.5590042
5	0xbd613a2a	-0.05498711
6	0x3e5483b8	0.20753372
7	0xbea5d82d	-0.32391492

prescalers.Rainfall.weight f4 [8, 1]
0	0xbf62ea0e	-0.8863839
1	0xbf7725d8	-0.9654212
2	0xbf35519a	-0.7082764
3	0x3eda3f50	0.4262643
4	0xbf7aedb2	-0.98018944
5	0x3f184cf6	0.59492433
6	0xbebd2218	-0.36940074
7	0x3e98df60	0.29857922

prescalers.Rainfall.bias f4 [8]
0	0xbe8f111f	-0.2794275
1	0x3e17c759	0.14822139
2	0x3ea9eeb7	0.33189937
3	0xbe3277c2	-0.17428496
4	0x3d7c43fd	0.061588276
5	0xbe6fcd95	-0.23418267
6	0x3e6bbfea	0.23022428
7	0xbee8f171	-0.45496705

prescalers.Air_Temp.weight f4 [8, 1]
0	0x3f8eea5b	1.116527
1	0x3fb64980	1.424118
2	0x3f9983da	1.1993363
3	0xc0026e71	-2.0379908
4	0xbfb30ec0	-1.3988876
5	0x3ffff823	1.99976
6	0x40253ad7	2.5817163
7	0xbebc64a5	-0.36795536

prescalers.Air_Temp.bias f4 [8]
0	0x3da75462	0.081703916
1	0x3f75e871	0.960578
2	0x3ed74bd5	0.42050043
3	0xbf1fce2e	-0.6242398
4	0xbe14b3fc	-0.14521784
5	0x3e93855f	0.28812692
6	0x3ec05d22	0.37571055
7	0xbe9e779c	-0.3095063

prescalers.S1_25.weight f4 [8, 1]
0	0x3fca0368	1.578229
1	0xc00caf21	-2.198189
2	0xc01601c1	-2.343857
3	0x4011443a	2.2697892
4	0xc01832be	-2.378097
5	0x40069195	2.1026356
6	0x401de120	2.4668655
7	0xbf20bb92	-0.6278621

prescalers.S1_25.bias f4 [8]
0	0x3dfde75c	0.12397644
1	0xbf1aef7c	-0.60521674
2	0xbf75624d	-0.9585312
3	0x3f09bb8f	0.53801817
4	0xbf2cabfd	-0.67449933
5	0x3f361fec	0.7114246
6	0x3f86ceff	1.053192
7	0x3db2db85	0.08733276

prescalers.S1_50.weight f4 [8, 1]
0	0xc02a3eca	-2.6600823
1	0xc024dc79	-2.5759566
2	0xbf93b431	-1.1539365
3	0x3ff21798	1.891345
4	0xc008eb8c	-2.1393766
5	0xbfbbef55	-1.4682413
6	0x3f6622e4	0.8989699
7	0x3f96f09f	1.1792182

prescalers.S1_50.bias f4 [8]
0	0xbdc266e0	-0.09492278
1	0xbe59509b	-0.21222155
2	0x3f1100a0	0.5664158
3	0xbe43deb3	-0.19127922
4	0x3f1b9fbd	0.60790616
5	0xbf0263bb	-0.50933427
6	0x3efeb013	0.4974371
7	0x3ec31872	0.38104588

prescalers.S1_80.weight f4 [8, 1]
0	0x3fcdd0ff	1.6079406
1	0xbf824498	-1.0177183
2	0x3fe6faa6	1.8045242
3	0xbfa8943c	-1.3170238
4	0xbfcd6042	-1.6045
5	0xbff137df	-1.8845176
6	0x3fecfa08	1.8513803
7	0x401b3d9f	2.425636

prescalers.S1_80.bias f4 [8]
0	0x3e725c71	0.23668076
1	0x3eeed2bf	0.46645162
2	0x3eb23629	0.34806946
3	0x3f033b2f	0.5126218
4	0xbce74c5b	-0.028234651
5	0xbf3ad16e	-0.72975814
6	0x3e202f4e	0.15643045
7	0x3ea7f901	0.32807162

prescalers.S1_110.weight f4 [8, 1]
0	0xbfb98067	-1.449231
1	0xbfca67c5	-1.5812918
2	0xbfdff2af	-1.7495936
3	0x3f120274	0.57034993
4	0x3f1787c4	0.59191537
5	0xbfa439f1	-1.2830182
6	0xbfb73785	-1.4313818
7	0xbf0e37fc	-0.55554175

prescalers.S1_110.bias f4 [8]
0	0xbe2a365c	-0.16622299
1	0xbe7dda56	-0.2479032
2	0xbe98a030	-0.29809713
3	0xbf204505	-0.62605315
4	0x3d9dede2	0.07711388
5	0x3efd520d	0.49476662
6	0xbedc93ff	-0.43081662
7	0x3e9affb1	0.30273202

prescalers.S2_25.weight f4 [8, 1]
0	0xc0187c93	-2.3826034
1	0xc022ec6a	-2.5456796
2	0xbfa4aa38	-1.2864447
3	0xc0320208	-2.781374
4	0x3f7f1397	0.99639267
5	0x40225037	2.536146
6	0xc020f2e3	-2.5148246
7	0x40239878	2.556181

prescalers.S2_25.bias f4 [8]
0	0xbf602013	-0.8754894
1	0xbf1b4c2e	-0.60663116
2	0xbf3ecd11	-0.74531657
3	0xbe59b68c	-0.21261042
4	0x3e6028b5	0.21890529
5	0x3ec6ac9e	0.3880357
6	0x3e6ca1dd	0.23108621
7	0x3f10c6ab	0.56553143

prescalers.S2_60.weight f4 [8, 1]
0	0xbfdde832	-1.7336485
1	0x4047a58d	3.1194794
2	0x4007a15b	2.1192234
3	0xc033a71c	-2.8070745
4	0xc029ccd5	-2.653127
5	0x3ffd9c27	1.9813279
6	0x3fb11160	1.3833427
7	0x401ec43a	2.4807267

prescalers.S2_60.bias f4 [8]
0	0xbe8d7a9e	-0.27632612
1	0x3d6fcdb1	0.058545772
2	0x3f3f57df	0.74743456
3	0xbee60066	-0.4492218
4	0xbed223e1	-0.41042998
5	0x3eddb59b	0.43302616
6	0xbf13aea7	-0.57688373
7	0x3f831c75	1.0243059

prescalers.S2_100.weight f4 [8, 1]
0	0xbfc5c106	-1.5449531
1	0xbf9b5942	-1.2136614
2	0x3fe922bd	1.8213726
3	0xc0095516	-2.1458182
4	0xbfc48b4d	-1.5355011
5	0x3fac05c6	1.3439262
6	0xbfcb230c	-1.587007
7	0x3fbd21bb	1.4775919

prescalers.S2_100.bias f4 [8]
0	0xbe9da49b	-0.30789647
1	0x3d8072f6	0.06271927
2	0x3e3bc229	0.18335785
3	0x3e353568	0.17696154
4	0xbf609450	-0.87726307
5	0x3f221417	0.63311905
6	0x3ec5c761	0.38628677
7	0x3efa2e60	0.48863506

prescalers.S2_140.weight f4 [8, 1]
0	0x3fc36a70	1.5266857
1	0xbfb4cbd5	-1.4124705
2	0x3fc9e586	1.577317
3	0xbf882eb9	-1.0639259
4	0xbffc734a	-1.9722683
5	0xbef5bc53	-0.47995242
6	0xbeb73af5	-0.35787168
7	0xbfb92cd8	-1.446681

prescalers.S2_140.bias f4 [8]
0	0xbfd255f7	-1.6432484
1	0x3f3de85d	0.74182683
2	0x3e48576b	0.19564597
3	0xbe174895	-0.14773782
4	0x3f72280e	0.9459237
5	0x3e317204	0.1732865
6	0x3f10cab8	0.56559324
7	0x3f13a98d	0.5768059

prescalers.S3_25.weight f4 [8, 1]
0	0xbfab210c	-1.336946
1	0x401255ce	2.286487
2	0x402b9c34	2.681409
3	0x3ffa4076	1.9550922
4	0xc00e6b86	-2.2253127
5	0xc006e23a	-2.1075578
6	0xc01084a4	-2.2580957
7	0x40163e35	2.3475468

prescalers.S3_25.bias f4 [8]
0	0xbe09ee84	-0.13469893
1	0x3f00e8e1	0.50355345
2	0x3f02b456	0.5105642
3	0x3edd34dc	0.4320439
4	0xbf21b24c	-0.63162684
5	0xbef1c58e	-0.47221035
6	0xbed7149b	-0.42007908
7	0x3f432a76	0.76236665

prescalers.S3_60.weight f4 [8, 1]
0	0xc002a1f8	-2.0411358
1	0x401b8d28	2.4304905
2	0x3f8c6cdd	1.0970722
3	0xc01ef702	-2.4838262
4	0xc0081ec3	-2.1268775
5	0x400f10ec	2.2354078
6	0x3fcc37de	1.5954549
7	0x4013087c	2.2973928

prescalers.S3_60.bias f4 [8]
0	0xbed5e5e9	-0.4177697
1	0x3f1acb3c	0.6046636
2	0xbeb4b515	-0.35294405
3	0xbf2eac51	-0.68231684
4	0xbf00e7dd	-0.50353795
5	0x3f05c153	0.52248114
6	0x3eb5de66	0.3552124
7	0x3ee3b2a8	0.4447224

prescalers.S3_110.weight f4 [8, 1]
0	0x3fd54861	1.6662713
1	0x4000782b	2.0073345
2	0x3fba1a4f	1.4539279
3	0xbfd890f9	-1.6919242
4	0x3f95560a	1.1666882
5	0x3fc9d943	1.5769428
6	0x3faa255a	1.3292649
7	0xbfa50a4e	-1.289377

prescalers.S3_110.bias f4 [8]
0	0x3e99ce63	0.30040273
1	0xbd5512cf	-0.05201989
2	0xbea6df03	-0.3259202
3	0xbe948e4b	-0.2901481
4	0xbe154a66	-0.14579162
5	0xbe81e630	-0.25370932
6	0xbe1fe1e8	-0.1561352
7	0xbdd36c3b	-0.10323378

prescalers.S3_170.weight f4 [8, 1]
0	0xbfc9c2c4	-1.5762563
1	0x3fcce153	1.6006263
2	0x3f9cedc3	1.2260059
3	0x3e951831	0.2912002
4	0x3fbd4a3b	1.4788278
5	0x3fb935a8	1.44695
6	0xbf7be8eb	-0.9840228
7	0x3fd18a01	1.637024

prescalers.S3_170.bias f4 [8]
0	0x3d8ad7f6	0.067794725
1	0x3eca9b8b	0.39571795
2	0xbeb65d65	-0.3561813
3	0xbec3dd28	-0.38254666
4	0x3e4ee6f2	0.20205286
5	0xbf486cc0	-0.7829094
6	0x3ef2fd54	0.474589
7	0xbeabc17a	-0.33546048

prescalers.S4_25.weight f4 [8, 1]
0	0x3ff39c64	1.9032102
1	0x3f9c2f2b	1.2201895
2	0x3e37ef4a	0.17962375
3	0xc0130461	-2.2971423
4	0x40261f8b	2.5956752
5	0xc0252ec5	-2.5809796
6	0xbfe3576b	-1.7761053
7	0xc04d31bb	-3.2061603

prescalers.S4_25.bias f4 [8]
0	0x3f2ad800	0.6673584
1	0x3be3f891	0.0069571217
2	0xbe4244f4	-0.18971616
3	0xbefeac53	-0.49740848
4	0x3ea68c1f	0.3252878
5	0xbf9c5979	-1.2214805
6	0x3f2b5e68	0.6694093
7	0x3e8a4809	0.27008083

prescalers.S4_60.weight f4 [8, 1]
0	0x402efd5b	2.7342136
1	0xbffe5050	-1.986826
2	0xbfc6dd37	-1.553626
3	0xc0093ae0	-2.1442184
4	0x3fca6bc1	1.5814134
5	0x4021d540	2.5286407
6	0x4003b3de	2.0578532
7	0xc007428d	-2.113437

prescalers.S4_60.bias f4 [8]
0	0x3f124280	0.5713272
1	0xbe3a8226	-0.1821371
2	0xbeb8d3f9	-0.36099222
3	0xbf0b547f	-0.54425806
4	0xbe086973	-0.13321476
5	0x3eac7aa7	0.33687326
6	0x3eee40fe	0.4653396
7	0xbc251290	-0.010075226

prescalers.S4_120.weight f4 [8, 1]
0	0x3d6016f3	0.054709386
1	0x3f57437d	0.84087354
2	0xbf154972	-0.58315194
3	0xbf9feb99	-1.2493774
4	0x3eb38221	0.35060218
5	0xbf864db3	-1.0492462
6	0xbe85550d	-0.2604145
7	0x3f6d2c13	0.92645377

prescalers.S4_120.bias f4 [8]
0	0xbb3471b2	-0.0027533588
1	0xbdd00d9f	-0.10158848
2	0xbf5a22e6	-0.852095
3	0xbf28bac3	-0.65909976
4	0x3e8a324c	0.26991498
5	0xbf4529b2	-0.77016747
6	0x3f019b53	0.5062763
7	0x3eec5ff1	0.46166947

prescalers.S4_190.weight f4 [8, 1]
0	0xbcf29e21	-0.029616417
1	0x3fae7402	1.3629153
2	0x3fc6530c	1.5494094
3	0x3cc82721	0.02443272
4	0xbf870f4e	-1.0551546
5	0xbf849f8a	-1.0361187
6	0x3faa5d49	1.3309718
7	0xbfb7bb64	-1.4354062

prescalers.S4_190.bias f4 [8]
0	0x3d0732e2	0.03300751
1	0xbe8bf690	-0.2733655
2	0x3ef986ca	0.48735648
3	0x3d6c11d2	0.057634182
4	0xbdbdce4a	-0.09267862
5	0xbe97cb7d	-0.29647437
6	0xbf240149	-0.6406446
7	0xbe33199c	-0.17490238

static_variable_selection.flattened_grn.resample_norm.mask f4 [3]
0	0xbe1e413d	-0.15454574
1	0xbe8da7ad	-0.2766699
2	0x3e21059d	0.15724798

static_variable_selection.flattened_grn.resample_norm.norm.weight f4 [3]
0	0x3f5517f0	0.8323965
1	0x3f9eb09c	1.2397647
2	0x3f92ae08	1.145936

static_variable_selection.flattened_grn.resample_norm.norm.bias f4 [3]
0	0xbe0fd8d9	-0.14047565
1	0xbe757f8a	-0.23974434
2	0x3e249efb	0.16076271

static_variable_selection.flattened_grn.fc1.weight f4 [3, 24]
0	0xbebc995f	-0.36835763
1	0xbdc8dc89	-0.09807689
2	0xbc8b1812	-0.016979251
3	0xbe111a83	-0.1417027
4	0x3e945e23	0.2897807
5	0x3f18a976	0.59633577
6	0xbd9accc7	-0.075585894
7	0xbf0d6e73	-0.5524666
8	0xbe01c300	-0.12672043
9	0xbe95ee66	-0.29283446
10	0x3e53a83b	0.20669644
11	0x3ec1c94b	0.37848887
12	0x3ccc15c2	0.024912719
13	0x3ed5feb0	0.41795874
14	0xbe47e6fa	-0.19521704
15	0x3f2764c6	0.65388143
16	0xbd407b08	-0.04699233
17	0x3e376aa5	0.17911775
18	0x3e1b9084	0.15191847
19	0xbeaea622	-0.34111124
20	0xbe3d230a	-0.18470398
21	0x3d95d9cd	0.07316933
22	0x3f2125f6	0.6294855
23	0xbeb15e40	-0.3464222
24	0xbe8f177c	-0.27947605
25	0xbd390620	-0.045171857
26	0xbe844a90	-0.25838137
27	0xbf0d6dfc	-0.5524595
28	0x3f314ecb	0.69260854
29	0xbd428787	-0.04749253
30	0x3d84a612	0.06476988
31	0xbf04ec6c	-0.5192325
32	0x3f265a9e	0.6498202
33	0x3e9caad3	0.3059908
34	0x3edfad28	0.43686795
35	0xbf02055a	-0.50789416
36	0x3ec684e5	0.38773265
37	0x3dd99081	0.10623265
38	0x3e817d2c	0.2529081
39	0x3ea77066	0.3270294
40	0x3d4ba377	0.04971644
41	0x3d1a92cd	0.037737656
42	0x3f06da22	0.52676594
43	0xbe2c362e	-0.16817543
44	0x3dfa28e3	0.1221483
45	0xbe48a81f	-0.19595383
46	0x3f28bd7f	0.6591415
47	0xbec23833	-0.37933502
48	0x3e209b5d	0.15684266
49	0x3ec2177e	0.37908548
50	0x3d1e416b	0.038636606
51	0x3eeb68a2	0.45978266
52	0x3f4339f0	0.7626028
53	0x3f03e63c	0.51523185
54	0xbf51e610	-0.8199167
55	0xbeabf6f5	-0.3358685
56	0x3e900268	0.28126836
57	0xbf522520	-0.820879
58	0xbe4f70b3	-0.20257835
59	0x3edbad58	0.42905688
60	0x3d6c2937	0.057656493
61	0xbed49fef	-0.4152827
62	0xbe01a908	-0.12662137
63	0xbe8a1ac8	-0.26973557
64	0x3e682626	0.22670802
65	0xbc90dd05	-0.017683515
66	0xbefb2615	-0.49052492
67	0xbeb7061d	-0.35746852
68	0x3c5a13ea	0.013310412
69	0x3e8ebaa2	0.27876765
70	0xbecf5aba	-0.40498906
71	0x3d2b14d2	0.041767903

static_variable_selection.flattened_grn.fc1.bias f4 [3]
0	0xbdc2f253	-0.09518876
1	0xbe8066cc	-0.25078428
2	0x3e2a2b1f	0.16618012

static_variable_selection.flattened_grn.fc2.weight f4 [3, 3]
0	0xbfa75a2c	-1.3074393
1	0x3cdbd2d7	0.026833935
2	0x3f00ccbc	0.503124
3	0x3fced8c4	1.6159902
4	0x3f09fd23	0.5390188
5	0x3f48846b	0.78327054
6	0xbdb61f2a	-0.08892663
7	0x400e96dd	2.227958
8	0xbf869733	-1.0514892

static_variable_selection.flattened_grn.fc2.bias f4 [3]
0	0x3e628ed0	0.22124791
1	0x3d2e7d5e	0.04260003
2	0xbe6ff07a	-0.23431578

static_variable_selection.flattened_grn.gate_norm.glu.fc.weight f4 [6, 3]
0	0x3e6b988a	0.23007408
1	0xbec5d333	-0.38637695
2	0xbdd0ccb4	-0.10195294
3	0xbf1fd86a	-0.62439597
4	0x3f3de828	0.7418237
5	0x3f3daf75	0.7409585
6	0x3f236980	0.63832855
7	0xbd5c0cd6	-0.05372318
8	0xbeb25b72	-0.34835392
9	0xbf68b762	-0.9090482
10	0x3edaf1aa	0.427625
11	0x3ed0ebe1	0.4080496
12	0xbf065d76	-0.5248636
13	0xbf562118	-0.8364425
14	0xbf62c8ec	-0.8858783
15	0xbe2726c5	-0.16323383
16	0x3d9e20c4	0.07721093
17	0x3f4218e7	0.7581925

static_variable_selection.flattened_grn.gate_norm.glu.fc.bias f4 [6]
0	0xbe04d81c	-0.12973064
1	0xbe781741	-0.2422762
2	0x3e21dfdf	0.15808056
3	0xbe3addfb	-0.18248741
4	0x3e753181	0.23944665
5	0x3c864021	0.016388

static_variable_selection.flattened_grn.gate_norm.add_norm.norm.weight f4 [3]
0	0x3f50e955	0.81606036
1	0x3fa4aabb	1.2864603
2	0x3f95452b	1.1661733

static_variable_selection.flattened_grn.gate_norm.add_norm.norm.bias f4 [3]
0	0xbe269088	-0.16266072
1	0xbe96954a	-0.29410774
2	0x3e3cd4d6	0.18440565

static_variable_selection.single_variable_grns.encoder_length.resample_norm.mask f4 [16]
0	0xbe4d0605	-0.20021828
1	0xbe3e38ec	-0.18576401
2	0xbe322794	-0.1739791
3	0xbe519599	-0.20467223
4	0x3e61dc6b	0.22056739
5	0xbe3ee30a	-0.18641296
6	0x3e1efc4a	0.15525928
7	0xbe33a779	-0.17544354
8	0xbb127dec	-0.0022352887
9	0xbe4d3466	-0.2003952
10	0xbe25893c	-0.16165632
11	0xbe224fb6	-0.1585072
12	0x3df4f29f	0.11960339
13	0x3e5e258c	0.2169401
14	0xbe4b3a74	-0.19846517
15	0xbdd59d02	-0.104303375

static_variable_selection.single_variable_grns.encoder_length.resample_norm.norm.weight f4 [16]
0	0x3fac7ee2	1.3476222
1	0x3f4e1a70	0.8050909
2	0x3f52d52e	0.82356536
3	0x3f4ad66c	0.7923343
4	0x3f9d1c44	1.2274251
5	0x3f513036	0.8171419
6	0x3f93ee13	1.155703
7	0x3f51bd9c	0.81929946
8	0x3fa3cfd9	1.2797805
9	0x3f4c2478	0.79743147
10	0x3f568874	0.8380196
11	0x3f58237d	0.8442915
12	0x3f8f1059	1.1176864
13	0x3f9bef43	1.2182392
14	0x3f4d4007	0.8017582
15	0x3f77cdc5	0.96798354

static_variable_selection.single_variable_grns.encoder_length.resample_norm.norm.bias f4 [16]
0	0xbe711076	-0.23541436
1	0xbe3848c1	-0.17996503
2	0xbe34a258	-0.17640054
3	0xbe4153eb	-0.18879668
4	0x3e6abf24	0.22924477
5	0xbe3aa978	-0.1822871
6	0x3e216106	0.15759668
7	0xbe32db90	-0.17466569
8	0xbdba5e0f	-0.090999715
9	0x3e4f8fdb	0.2026972
10	0x3e24d799	0.16097869
11	0x3e183121	0.14862491
12	0xbdf5a25c	-0.11993858
13	0xbe5820d2	-0.2110627
14	0x3e4a2701	0.19741441
15	0xbe046d5b	-0.12932341

static_variable_selection.single_variable_grns.encoder_length.fc1.weight f4 [8, 8]
0	0x3f1df3f7	0.61700386
1	0x3f25162a	0.64486945
2	0x3e424c07	0.18974315
3	0xbf034bad	-0.5128735
4	0x3f296222	0.66165364
5	0xbf1c25d4	-0.6099522
6	0xbf08efe1	-0.53491026
7	0xbddabc0e	-0.106804
8	0x3f768b15	0.9630597
9	0xbf134f19	-0.5754257
10	0xbf688b14	-0.90837216
11	0x3d0faa3d	0.03507446
12	0x3e90eb13	0.28304347
13	0xbdddb47d	-0.10825441
14	0x3dae43d7	0.08509033
15	0xbf26095d	-0.6485804
16	0xbd677633	-0.056509208
17	0xbea8cf35	-0.32970586
18	0xbd1f3556	-0.038869224
19	0x3f0f380f	0.55944914
20	0xbf628a3b	-0.8849217
21	0x3e91db17	0.28487465
22	0xbdff5f1b	-0.12469312
23	0x3f1e31db	0.61794823
24	0xbf469b58	-0.77580786
25	0x3d12870d	0.035773326
26	0xbe907f80	-0.28222275
27	0xbf6be10d	-0.92140275
28	0x3eb45ede	0.35228628
29	0x3e99daa2	0.30049616
30	0x3f82cc90	1.0218678
31	0xbd7a921a	-0.06117449
32	0x3e8e7875	0.27826276
33	0xbf90c2ef	-1.1309489
34	0x3f5c2f6e	0.8600987
35	0x3ecfd390	0.40591097
36	0xbdfa98aa	-0.122361496
37	0x3ef413dd	0.47671404
38	0xbf3d798f	-0.7401361
39	0xbec92f26	-0.39293784
40	0x3f2aafb8	0.66674376
41	0x3f9e1e98	1.2353086
42	0x3f021a3b	0.50821275
43	0xbe4a51cf	-0.1975777
44	0xbef9d0ba	-0.48792058
45	0xbf18bcd6	-0.5966314
46	0xbf514940	-0.81752396
47	0x3f87d705	1.0612494
48	0xbfb75026	-1.4321334
49	0x3e31682a	0.17324892
50	0xbe0dcfd1	-0.13848807
51	0x3f2db81b	0.6785905
52	0xbf278228	-0.6543298
53	0xbf1309d5	-0.5743688
54	0xbdad341a	-0.08457203
55	0x3f449960	0.7679653
56	0xbd48eb4b	-0.049052518
57	0x3ea49cea	0.32150966
58	0x3f0d33bb	0.5515706
59	0x3bda32b7	0.0066588777
60	0x3f0464c9	0.51716286
61	0x3f2f57da	0.68493426
62	0x3f5446ef	0.82920736
63	0xbf5a9aa8	-0.85392237

static_variable_selection.single_variable_grns.encoder_length.fc1.bias f4 [8]
0	0x3ded445e	0.11585306
1	0xbdf4498d	-0.11928091
2	0x3e539688	0.20662892
3	0xbe3b2ac0	-0.18278027
4	0x3e53b98b	0.20676248
5	0x3d8620a2	0.06549193
6	0x3e4a831c	0.19776577
7	0xbe309597	-0.17244564

static_variable_selection.single_variable_grns.encoder_length.fc2.weight f4 [8, 8]
0	0xbf07cabb	-0.5304372
1	0x3f84bfd4	1.0371041
2	0x3ea4bf18	0.32177043
3	0x3fd3b2c8	1.6538935
4	0x3e7051bb	0.23468678
5	0xbcd077dd	-0.02544778
6	0xbf395876	-0.72400606
7	0xbef34689	-0.47514752
8	0xbd25718b	-0.040391486
9	0x3f5e6112	0.8686687
10	0xbf817331	-1.0113279
11	0x3d3c357b	0.04594944
12	0xbe561a71	-0.20908524
13	0xbea0e7ce	-0.31426853
14	0x3d40426b	0.04693834
15	0x3eda75c8	0.42667985
16	0xbdef894e	-0.11696111
17	0xbf1b79aa	-0.6073252
18	0x3e0d8563	0.13820414
19	0xbf12b3d2	-0.57305634
20	0x3ead7811	0.33880666
21	0xbeb468fc	-0.35236347
22	0x3f85689e	1.0422552
23	0xbd6ee3ac	-0.058322594
24	0x3e8d745d	0.2762784
25	0xbe797187	-0.24359713
26	0xbf14b203	-0.58084124
27	0xbee1566b	-0.44011244
28	0x3f8559e2	1.0418055
29	0x3e4a7fbf	0.19775294
30	0x3ef8a9e9	0.4856713
31	0xbc4bf358	-0.012448154
32	0x3f0395cf	0.51400465
33	0xbf395bf9	-0.72405964
34	0x3e96edd8	0.29478335
35	0x3ea47fe1	0.32128814
36	0x3dc7e260	0.097599745
37	0x3d859da6	0.0652421
38	0xbdec1666	-0.1152771
39	0xbe8596c4	-0.26091588
40	0xbee12555	-0.43973795
41	0xbe94423b	-0.2895678
42	0xbf0cf0d9	-0.55055004
43	0x3f12869d	0.57236654
44	0xbdb596b2	-0.088666335
45	0x3da23690	0.07920563
46	0xbe09de57	-0.13463722
47	0x3c8de58f	0.017321376
48	0xbe98a0e1	-0.2981024
49	0x3ea90ac5	0.3301603
50	0x3f3376bc	0.7010305
51	0xbd6f421e	-0.058412664
52	0x3f44a4bf	0.7681388
53	0xbd49e004	-0.049285904
54	0x3e70ba1f	0.235085
55	0xbe8154a5	-0.2525989
56	0xbf1075e7	-0.56429905
57	0xbe35cde5	-0.17754324
58	0xbf42fe50	-0.761693
59	0x3f2a28f0	0.66468716
60	0xbdd8077e	-0.10548304
61	0xbf55103d	-0.832279
62	0xbe9619d8	-0.29316592
63	0x3f17f7b3	0.59362334

static_variable_selection.single_variable_grns.encoder_length.fc2.bias f4 [8]
0	0xbe6e9920	-0.233006
1	0xbe6e95b3	-0.23299293
2	0x3e8e6d1f	0.27817628
3	0x3e5d5980	0.21616173
4	0x3dc63a47	0.09679084
5	0xbd26ca59	-0.040720318
6	0xbd6c492c	-0.05768697
7	0xbe3b1c7e	-0.18272588

static_variable_selection.single_variable_grns.encoder_length.gate_norm.glu.fc.weight f4 [32, 8]
0	0xb9bb7cef	-0.00035760502
1	0x3c9f0007	0.019409193
2	0xbe169b1c	-0.14707607
3	0xbe4fad2b	-0.20280902
4	0x3c643aef	0.0139300665
5	0xbd52b80a	-0.051445045
6	0x3ea102a9	0.31447342
7	0x3ecce6ab	0.40019736
8	0xbcb508a8	-0.022098854
9	0x3e192f6e	0.14959499
10	0x3d97882a	0.07399018
11	0xbe20d93b	-0.15707867
12	0xbe90cf3c	-0.28283107
13	0xbec4d75d	-0.3844556
14	0x3eeaf7c2	0.4589215
15	0xbdf73285	-0.12070183
16	0xbd42065d	-0.04736935
17	0xbf015ceb	-0.50532407
18	0x3e6a44cb	0.22877805
19	0x3eeea367	0.4660904
20	0xbc7130bc	-0.014721092
21	0xbef37c59	-0.47555807
22	0x3e3e483b	0.18582241
23	0x3e700a6b	0.23441474
24	0x3eddbfc6	0.43310374
25	0xbecec685	-0.40385833
26	0x3f253a95	0.64542514
27	0x3ce91213	0.028451001
28	0x3d3f9414	0.046772078
29	0xbf281dd4	-0.65670514
30	0x3f016f85	0.5056079
31	0xbc8cde74	-0.017195918
32	0xbf2bf768	-0.67174387
33	0x3f11d4ac	0.56965137
34	0xbee879f7	-0.45405552
35	0xbe96222f	-0.29322955
36	0xbe4e8cce	-0.201709
37	0xbdfe709a	-0.12423821
38	0xbee79a11	-0.4523473
39	0xbefad99d	-0.4899415
40	0x3ea05344	0.31313527
41	0xbf5aa2c1	-0.8540459
42	0x3f1fd1fe	0.624298
43	0x3f1b3c96	0.6063932
44	0x3e79181e	0.24325606
45	0xbd6fd9de	-0.058557384
46	0x3bdbfcfd	0.006713508
47	0x3d771f5e	0.06033265
48	0x3e007ac7	0.12546836
49	0x3e51165c	0.20418686
50	0xbd9cb9c5	-0.0765262
51	0xbf118494	-0.56842923
52	0xbeaf4bb8	-0.34237456
53	0x3dd48362	0.10376622
54	0xbe2767d0	-0.16348195
55	0xbe4530ff	-0.19256972
56	0x3f09b5d8	0.53793097
57	0x3edc869f	0.43071458
58	0x3e2e17b7	0.17001234
59	0xbef3b53d	-0.4759921
60	0xbeb63065	-0.35583797
61	0xbe403b20	-0.18772554
62	0xbe8d1a5f	-0.27559182
63	0x3ea6b012	0.32556206
64	0xbe35537c	-0.17707628
65	0x3df7ea15	0.121051945
66	0x3dd38a34	0.103290945
67	0x3e96e779	0.29473475
68	0xbe821624	-0.25407517
69	0xbd991890	-0.07475388
70	0x3ed079ac	0.40717828
71	0x3ed49266	0.41517943
72	0xbe84d65e	-0.259448
73	0x3e085ea4	0.13317353
74	0x3e13be78	0.14428127
75	0xbe8bab4e	-0.27279133
76	0xbf13501b	-0.57544106
77	0x3e09d9d7	0.13462006
78	0x3d765720	0.060141683
79	0xbe88bd5f	-0.2670698
80	0xbe08aa82	-0.13346294
81	0x3db6ea77	0.08931439
82	0x3e34c4de	0.17653224
83	0xbed06cb6	-0.4070794
84	0xbe99a775	-0.30010572
85	0xbd890edd	-0.06692288
86	0xbe46f02e	-0.19427559
87	0xbf0829e5	-0.53188926
88	0xbe6d7c01	-0.23191835
89	0x3e8af9de	0.2714376
90	0xbf000b86	-0.50017583
91	0xbe20c4de	-0.15700099
92	0xbeb56c00	-0.3543396
93	0xbd587f8c	-0.052856013
94	0xbd8cfd84	-0.06884292
95	0xbe2f860c	-0.17140979
96	0x3ed3f7f6	0.41400117
97	0xbecf7da5	-0.40525547
98	0xbd607f32	-0.054808803
99	0x3e89c29e	0.26906294
100	0xbd1bae20	-0.038007855
101	0x3d855564	0.065104276
102	0x3e2a47a4	0.16628891
103	0x3cd263df	0.025682388
104	0x3ecb6d6d	0.39731923
105	0x3df9e529	0.12201912
106	0xbb844919	-0.004037034
107	0xbf72dca4	-0.9486792
108	0x3dcdcd9a	0.10048981
109	0xbe88a657	-0.26689407
110	0x39f875c8	0.0004739
111	0x3f3e2a1b	0.74283
112	0xbea9ff13	-0.3320242
113	0x3ec15455	0.37759653
114	0xbe415df4	-0.18883497
115	0x3ea8783d	0.32904235
116	0xbd8c2034	-0.0684208
117	0x3f1efd2a	0.6210505
118	0xbf03253a	-0.5122868
119	0xbd100aef	-0.035166677
120	0x3cd14ccf	0.02554932
121	0xbe4c2661	-0.19936515
122	0x3eaceeff	0.3377609
123	0x3f07d47b	0.53058594
124	0x3dae8727	0.08521872
125	0xbf43005c	-0.76172423
126	0x3eb4933b	0.35268578
127	0xbdc0c24d	-0.0941206
128	0x3ea7d157	0.327769
129	0xbe8b6cd8	-0.2723148
130	0xbe1ad1b5	-0.1511906
131	0xbdee3f35	-0.116331495
132	0x3d87ae0a	0.06624992
133	0x3e340e50	0.17583585
134	0x3f0db3be	0.5535239
135	0x3ed28265	0.41115108
136	0xbe01c72d	-0.12673636
137	0xbe8f6021	-0.28003028
138	0xbdec4132	-0.115358725
139	0x3e678703	0.22610097
140	0x3dc0c132	0.09411849
141	0xbe24b189	-0.1608335
142	0xbe0fe997	-0.14053951
143	0x3ef962c7	0.48708174
144	0xbd928034	-0.07153359
145	0x3f70e1c7	0.9409451
146	0xbe261195	-0.16217645
147	0xbf24b0db	-0.6433236
148	0xbf78f859	-0.9725395
149	0x3f51cbc2	0.81951535
150	0xbf254b49	-0.64568
151	0xbe72d7e3	-0.23715167
152	0xbed415b5	-0.4142281
153	0xbf1db5c6	-0.6160549
154	0xbe3f814b	-0.18701665
155	0x3e172cc2	0.14763168
156	0x3ea22eac	0.31676233
157	0x3dd5095f	0.10402178
158	0xbe68f476	-0.22749504
159	0xbf34fb4f	-0.70695966
160	0xbedc5256	-0.43031567
161	0x3ee96c72	0.4559055
162	0x3cffefe0	0.031242311
163	0xbe27f229	-0.1640097
164	0xbe20512c	-0.15655965
165	0x3e7207b8	0.23635757
166	0xbeb08b3b	-0.34481224
167	0xbdf407a7	-0.11915522
168	0xbe4e8bf6	-0.20170578
169	0xbef7c6e7	-0.48393938
170	0xbcb468c4	-0.022022612
171	0x3eca7e7d	0.39549628
172	0x3da56640	0.08076143
173	0xbe812bce	-0.25228733
174	0x3e64bd67	0.22337876
175	0xbf5732cd	-0.8406189
176	0x3e885dd0	0.26634073
177	0xbf24eb62	-0.64421666
178	0x3cd3b392	0.025842462
179	0x3ec93af9	0.39302805
180	0x3edec446	0.4350912
181	0xbec1e94e	-0.3787331
182	0x3ed2fc1a	0.41207963
183	0x3e803996	0.25043935
184	0xbeb004f6	-0.34378785
185	0xbdf2228f	-0.11822998
186	0xbd250d16	-0.040295683
187	0x3ee202cd	0.44142762
188	0xbdd15922	-0.10222079
189	0xbea9d430	-0.331697
190	0xbda19f74	-0.078917414
191	0xbefa93e3	-0.48940954
192	0x3e3bff20	0.18359041
193	0x3eacd150	0.33753443
194	0xbe5e1f8d	-0.21691723
195	0xbed9a88f	-0.42511413
196	0x3e6e4be1	0.23271133
197	0x3e357e50	0.17723966
198	0xbd7e91a6	-0.06215062
199	0x3d311e27	0.043241646
200	0xbcbd7c9e	-0.023130711
201	0xbe1d18a4	-0.15341431
202	0x3d84b83a	0.06480451
203	0x3edf0369	0.4355729
204	0xbe9a1f8c	-0.30102193
205	0xbe4dbf00	-0.20092392
206	0x3d9099df	0.070605986
207	0xbdf3413a	-0.11877675
208	0x3eb30770	0.34966612
209	0xbcbf6259	-0.023362326
210	0x3ce3ba63	0.027798837
211	0xbf05733a	-0.52128947
212	0x3eab1aca	0.33418876
213	0x3e79415d	0.2434134
214	0x3ec973f2	0.39346272
215	0x3e89e2d2	0.26930863
216	0xbeacabf3	-0.33724937
217	0x3c3e82b1	0.011627839
218	0xbeff25ee	-0.49833626
219	0xbf1d1c44	-0.61371255
220	0xbe440d47	-0.1914569
221	0x3f073587	0.5281605
222	0xbe71b790	-0.2360518
223	0xbe29eca7	-0.16594182
224	0x3e3f1a05	0.1866227
225	0x3d58c092	0.052918024
226	0xbe809aa0	-0.2511797
227	0xbe1eb4c2	-0.15498641
228	0x3ea73d20	0.32663822
229	0x3ed6aaf6	0.41927308
230	0x3dffe463	0.12494733
231	0x3f06e7ff	0.5269775
232	0xbec6f360	-0.38857555
233	0x3e5c95ef	0.2154157
234	0x3ee8c628	0.4546368
235	0x3f122177	0.57082313
236	0x3c11648e	0.008874072
237	0xbea75f0e	-0.32689708
238	0x3e614fcd	0.22003098
239	0xbeadf3fc	-0.33975208
240	0xbe47870f	-0.19485115
241	0x3ea00e37	0.31260845
242	0x3cd04e47	0.02542795
243	0x3e241a9a	0.16025773
244	0xbe8a886d	-0.2705721
245	0x3d7a27ed	0.061073232
246	0x3d419ba7	0.047267582
247	0xbeca96ad	-0.39568081
248	0xbe1c63bb	-0.15272419
249	0xbe9c2c7a	-0.30502683
250	0x3ed32cd3	0.41245136
251	0x3e942738	0.28936172
252	0x3eb8171b	0.35955128
253	0xbedf9aec	-0.43672884
254	0xbe9d35a6	-0.30704993
255	0xbed1752a	-0.40909702

static_variable_selection.single_variable_grns.encoder_length.gate_norm.glu.fc.bias f4 [32]
0	0xbe541dae	-0.20714447
1	0xbe4a5f68	-0.19762957
2	0xbe2aa091	-0.16662814
3	0xbe3bccbc	-0.18339819
4	0x3e73fca1	0.23826839
5	0xbe352b0d	-0.17692204
6	0x3e28064c	0.16408652
7	0xbe35f0c6	-0.17767629
8	0xbded3c06	-0.11583714
9	0x3e3d9951	0.18515517
10	0x3e26bc8a	0.1628286
11	0x3e18375a	0.14864865
12	0xbe0026ec	-0.12514848
13	0xbe70a72c	-0.23501271
14	0x3e42a4d4	0.1900819
15	0xbd4f0eb2	-0.050551124
16	0xbe57b59a	-0.21065369
17	0xbe4267f6	-0.1898497
18	0x3dd754bd	0.105142094
19	0x3e86f5f6	0.26359528
20	0x3e7b91aa	0.24567285
21	0x3e8de8ff	0.27716824
22	0xbe1e0c19	-0.15434302
23	0x3e1da004	0.15393072
24	0xbdacde37	-0.084408216
25	0xbe0d82ef	-0.13819478
26	0xbe1dc31b	-0.15406458
27	0x3e0d7d3c	0.13817304
28	0xbd2c1961	-0.04201639
29	0x3d82fb83	0.06395628
30	0x3e9bd3a3	0.30434904
31	0x3e95b39c	0.29238594

static_variable_selection.single_variable_grns.encoder_length.gate_norm.add_norm.norm.weight f4 [16]
0	0x3f58593f	0.8451118
1	0x3f4c8667	0.7989258
2	0x3f43bacb	0.764569
3	0x3f0053ef	0.5012807
4	0x3f9da69c	1.231647
5	0x3f50d0e6	0.81568754
6	0x3f930848	1.1486902
7	0x3f78581f	0.9700946
8	0x3f823da7	1.0175065
9	0x3f4b6432	0.7944976
10	0x3f54e0c1	0.8315545
11	0x3f448cf2	0.76777565
12	0x3f86ee8d	1.054155
13	0x3fb01af4	1.3758225
14	0x3f580b6d	0.84392434
15	0x3f3c01f9	0.7344051

static_variable_selection.single_variable_grns.encoder_length.gate_norm.add_norm.norm.bias f4 [16]
0	0xbe98402e	-0.29736465
1	0xbe226eca	-0.15862575
2	0xbe342b6a	-0.17594686
3	0x3c8c1b60	0.017102897
4	0x3e602012	0.21887234
5	0xbe02f66d	-0.12789316
6	0x3e205457	0.15657173
7	0xbea2e10d	-0.31812325
8	0x3df61ee5	0.120176114
9	0x3e4a749f	0.1977105
10	0x3e22c872	0.15896776
11	0x3dc02cce	0.09383546
12	0x3d0ced42	0.034405954
13	0xbea74639	-0.32670763
14	0x3e49287c	0.1964435
15	0x3e35cabe	0.17753121

static_variable_selection.single_variable_grns.target_center.resample_norm.mask f4 [16]
0	0x3eb5652e	0.35428756
1	0x3e4110af	0.1885402
2	0x3e258c00	0.16166687
3	0x3e35606c	0.17712563
4	0xbe5d6293	-0.21619634
5	0xbe4cf0c1	-0.20013715
6	0x3dd9e2a6	0.10638933
7	0xbddeb768	-0.10874826
8	0x3d84f60d	0.06492243
9	0xbe64c5e4	-0.22341114
10	0xbe1122ba	-0.14173403
11	0xbdfef19a	-0.124484256
12	0xbd97fd32	-0.0742134
13	0x3eaa9880	0.33319473
14	0xbe654d9f	-0.22392891
15	0xbd814316	-0.06311624

static_variable_selection.single_variable_grns.target_center.resample_norm.norm.weight f4 [16]
0	0x3fa83245	1.3140341
1	0x3f96a667	1.1769532
2	0x3f938802	1.1525881
3	0x3f40352b	0.7508113
4	0x3f9444f9	1.1583549
5	0x3f48e4a4	0.7847388
6	0x3f8bb239	1.0913764
7	0x3f609cb5	0.87739116
8	0x3f4132c4	0.7546809
9	0x3f43bf80	0.7646408
10	0x3f589a2a	0.84610236
11	0x3f6efb35	0.9335206
12	0x3f86e246	1.0537803
13	0x3fa3c147	1.2793359
14	0x3f45d5fe	0.7727965
15	0x3f6f3e88	0.9345479

static_variable_selection.single_variable_grns.target_center.resample_norm.norm.bias f4 [16]
0	0xbea2b1bf	-0.31776235
1	0xbe39dcbf	-0.18150614
2	0xbe254ea7	-0.16143285
3	0xbe43d7e5	-0.19125326
4	0x3e256a0b	0.16153733
5	0xbe5cb77c	-0.21554369
6	0x3dc13eff	0.09435844
7	0xbdfdb6ba	-0.12388368
8	0xbdc4158a	-0.09574421
9	0x3e6be5ea	0.23036924
10	0x3e0c2753	0.13686876
11	0x3de99a57	0.11406391
12	0x3d8296a3	0.06376388
13	0xbea43192	-0.3206907
14	0x3e6c12b4	0.2305401
15	0x3d579a7a	0.052637555

static_variable_selection.single_variable_grns.target_center.fc1.weight f4 [8, 8]
0	0xbeed0909	-0.46295956
1	0x3e63859a	0.22218934
2	0x3dda9d13	0.10674491
3	0xbe96200d	-0.29321328
4	0xbf15f291	-0.5857325
5	0x3f228dd7	0.6349768
6	0x3a59d2bf	0.00083092967
7	0x3eb7807c	0.35840213
8	0x3f31a17b	0.69387025
9	0x3f7dc845	0.9913371
10	0xbf30a4a8	-0.69001245
11	0x3d0fa8cd	0.03507309
12	0x3dad4fc6	0.08462481
13	0xbe0f28af	-0.13980363
14	0x3f1527cd	0.58263856
15	0xbe331261	-0.1748748
16	0xbd91863d	-0.07105682
17	0x3f3d30ad	0.739024
18	0x3f49a6e0	0.78770256
19	0xbf00fc94	-0.50385404
20	0x3f47d35f	0.780569
21	0xbf1f807b	-0.6230542
22	0x3e735fe8	0.23767054
23	0xbf64c8ca	-0.8936888
24	0xbe938cda	-0.288184
25	0xbec186ea	-0.37798244
26	0x3f80dc04	1.0067143
27	0xbf545208	-0.8293767
28	0x3e9c36e7	0.30510637
29	0x3e89e463	0.26932058
30	0x3fa233d3	1.2672065
31	0xbd076a04	-0.03306009
32	0x3f91a1ce	1.1377504
33	0xbe77e11a	-0.24206963
34	0x3e3043c7	0.17213355
35	0xbfaefb24	-1.3670392
36	0xbe8df1f9	-0.27723673
37	0xbf554d1a	-0.8332077
38	0xbe6d7bab	-0.23191707
39	0x3f7dae14	0.9909375
40	0x3e9d7511	0.30753377
41	0x3e6b5128	0.22980177
42	0x3f945b3c	1.1590343
43	0xbdacdca2	-0.0844052
44	0x3cd56c80	0.026052713
45	0x3f52d287	0.8235249
46	0x3f012647	0.5044903
47	0x3c00c960	0.007860512
48	0x3e3ec1e8	0.18628657
49	0x3e914933	0.2837616
50	0x3eadd303	0.33950052
51	0x3e16b8bd	0.1471891
52	0x3ea9a34f	0.33132407
53	0xbdb2d1d8	-0.08731431
54	0x3e46f3cc	0.19428939
55	0xbec2c40b	-0.38040194
56	0xbf4cf9af	-0.80068487
57	0xbf72e3ef	-0.9487905
58	0x3d70b25c	0.058763847
59	0x3e538b14	0.20658523
60	0xbf2d66c4	-0.6773493
61	0x3ea7dbe1	0.32784942
62	0xbec48e1f	-0.3838968
63	0xbf49d2ae	-0.78837097

static_variable_selection.single_variable_grns.target_center.fc1.bias f4 [8]
0	0xbe6b0ea3	-0.22954802
1	0x3c03d499	0.008046293
2	0xbe1a3099	-0.15057601
3	0xbd5c84f2	-0.053837724
4	0xbe17feaf	-0.14843248
5	0xbe905e6a	-0.28197032
6	0x3c393416	0.011303922
7	0x3eb84ec5	0.35997596

static_variable_selection.single_variable_grns.target_center.fc2.weight f4 [8, 8]
0	0xbe706bdd	-0.23478647
1	0x3f7c2d1a	0.9850632
2	0xbd6bd99a	-0.057580568
3	0x3eb4f547	0.35343382
4	0xbf48ae1e	-0.7839068
5	0xbea6fa84	-0.32613003
6	0xbec7c08b	-0.39014086
7	0xbeda6bcd	-0.4266037
8	0xbc3ed694	-0.011647839
9	0xbd973b73	-0.07384386
10	0x3eee7f8a	0.4658168
11	0x3ec49c98	0.38400722
12	0x3edb4f28	0.4283383
13	0x3f36faaf	0.7147626
14	0xbed20716	-0.4102103
15	0xbebf3e40	-0.3735218
16	0x3eba1dd1	0.36350873
17	0xbf0e7d46	-0.556599
18	0x3ebe53d5	0.37173334
19	0xbedc6657	-0.4304683
20	0x3e94abc2	0.2903729
21	0xbf3ae7f5	-0.7301019
22	0x3e14ecc0	0.14543438
23	0x3e4cecee	0.20012257
24	0xbeb510a5	-0.3536426
25	0x3f3b40ce	0.7314576
26	0x3eaa7c6f	0.3329806
27	0x3e76b478	0.24092281
28	0x3f931952	1.1492102
29	0x3f2f8dea	0.6857592
30	0x3f7c07c1	0.9844933
31	0xbfe58697	-1.7931699
32	0x3f18b5b0	0.59652233
33	0x3b8cfc5c	0.0043025445
34	0xbd1526b8	-0.03641388
35	0xbc96d880	-0.018413782
36	0xbeead01f	-0.4586191
37	0x3e603fee	0.21899387
38	0xbdba65e6	-0.09101467
39	0xbc162453	-0.009163934
40	0x3e982c9d	0.29721537
41	0xbe4738be	-0.19455239
42	0xbed7aaa2	-0.4212237
43	0x3e61c402	0.22047427
44	0xbe8ba3af	-0.27273318
45	0x3c806e60	0.01567763
46	0xbf0c364c	-0.5477035
47	0xbe2c2fae	-0.16815063
48	0x3f222c6a	0.6334902
49	0x3dd29da1	0.102839716
50	0x3f3ac3e7	0.72955173
51	0xbe8fa55a	-0.2805584
52	0x3da20f2a	0.079130486
53	0x3c9a09a0	0.018803418
54	0xbedfc3fb	-0.4370421
55	0x3eae9de6	0.34104842
56	0x3f5869ed	0.8453663
57	0x3e077153	0.13226824
58	0x3f87f450	1.0621433
59	0x3ed12fe2	0.40856844
60	0xbf2a27f5	-0.6646722
61	0x3f485740	0.7825813
62	0x3f77b30f	0.96757597
63	0x3ec91261	0.39271834

static_variable_selection.single_variable_grns.target_center.fc2.bias f4 [8]
0	0xbc1a5b8a	-0.009421239
1	0xbe5ca707	-0.21548091
2	0xbd4c4446	-0.049869798
3	0xbec3fddb	-0.38279614
4	0x3e07ce1b	0.13262217
5	0xbe09c7e5	-0.1345516
6	0x3ddf9225	0.10916547
7	0xbd137ec4	-0.036009565

static_variable_selection.single_variable_grns.target_center.gate_norm.glu.fc.weight f4 [32, 8]
0	0x3ea02601	0.31278995
1	0x3e57e85c	0.21084732
2	0xbe261818	-0.16220129
3	0x3eaccb12	0.3374868
4	0x3da65bca	0.08122976
5	0x3d34586c	0.04402964
6	0x3c05f971	0.008177147
7	0xbe6b7e0e	-0.22997305
8	0xbdd8a992	-0.10579218
9	0xbed7dadc	-0.42159164
10	0x3d65009b	0.05590878
11	0xbd4876d8	-0.048941463
12	0xbe55d891	-0.20883395
13	0xbc4456ea	-0.011983613
14	0xbe27bb15	-0.1637996
15	0xbefa6df9	-0.48912027
16	0x3ee8f8d5	0.45502344
17	0xbe3590d1	-0.17731024
18	0xbe877263	-0.26454458
19	0x3b43403e	0.002979293
20	0x3dbb4e1c	0.091457576
21	0x3e2542b9	0.16138734
22	0xbb0579df	-0.002036683
23	0x3e18fb14	0.14939529
24	0x3e898c48	0.2686484
25	0xbf19ac3a	-0.6002842
26	0xbde75714	-0.11295906
27	0x3e90da23	0.28291425
28	0xbb8792ae	-0.0041373586
29	0xbf08538f	-0.532525
30	0x3dfed095	0.124421276
31	0xbc074496	-0.008256098
32	0xbf3f3521	-0.74690443
33	0x3df193e1	0.11795784
34	0x3ed61814	0.41815245
35	0xbf23eefb	-0.6403653
36	0x3f33908c	0.70142436
37	0x3eed460f	0.46342513
38	0x3f2864af	0.6577863
39	0x3d44c994	0.048043802
40	0x3d1d9440	0.03847146
41	0xbeb29d11	-0.34885457
42	0xbf1be93b	-0.60902756
43	0x3f056be7	0.5211777
44	0xbe43e623	-0.19130759
45	0x3e31214b	0.17297857
46	0xbec78880	-0.3897133
47	0x3d1d2444	0.038364664
48	0xbd897700	-0.067121506
49	0xbdb56edb	-0.08859035
50	0xbe9285ce	-0.2861771
51	0x3d8954e9	0.067056485
52	0x3ed1f21b	0.41005024
53	0xbe2ac095	-0.16675027
54	0x3e2d77f6	0.16940293
55	0x3ef85c31	0.48507836
56	0xbe4bec8e	-0.19914457
57	0x3d9de05a	0.07708807
58	0xbe4ef73a	-0.20211497
59	0x3e08b350	0.13349652
60	0x3e8c6007	0.27417013
61	0xbebbaa80	-0.3665352
62	0x3d671c69	0.05642358
63	0xbe087fa8	-0.13329947
64	0x3f102e01	0.56320196
65	0xbec57cdc	-0.38571823
66	0x3e112f6a	0.14178243
67	0x3d88cd34	0.066797644
68	0xbec7de1f	-0.39036652
69	0xbd1c32c2	-0.038134344
70	0x3e1a7acf	0.1508591
71	0xbba2d651	-0.004969396
72	0x3ca05fee	0.019576993
73	0x3e3329de	0.1749644
74	0xbca6a26a	-0.020341117
75	0xbf6dff59	-0.92967755
76	0x3e818c3d	0.25302306
77	0x3edb0e01	0.42784122
78	0x3f0450cf	0.51685804
79	0x3e5079e3	0.20358996
80	0xbefb6031	-0.49096826
81	0x3c4336ed	0.011914951
82	0xbe378e80	-0.17925453
83	0xbeb52300	-0.35378265
84	0x3e98253a	0.29715902
85	0xbd986fa1	-0.074431665
86	0xbd01a438	-0.03165075
87	0x3e119586	0.14217195
88	0xbd8c4bc8	-0.068503916
89	0x3eefbf5d	0.46825686
90	0x3e954d32	0.29160458
91	0x3e99a050	0.3000512
92	0x3e500388	0.20313847
93	0xbde7c4f0	-0.1131686
94	0x3e39b608	0.18135846
95	0x3ec6d56b	0.388347
96	0x3daa6621	0.08320261
97	0xbeae81e5	-0.34083477
98	0xbe59c737	-0.212674
99	0xbf2d59dc	-0.6771524
100	0x3f1db82c	0.6160915
101	0xbeaeee0c	-0.3416599
102	0x3e9da6ab	0.3079122
103	0x3dabcd0e	0.083887205
104	0x3e79b680	0.24386024
105	0x3ea04bb9	0.31307772
106	0xbf068a65	-0.52554923
107	0x3ec8bfbd	0.39208785
108	0xbd031c65	-0.0320095
109	0xbe8fc3f6	-0.28079194
110	0xbe7ff17d	-0.24994464
111	0xbe499bfa	-0.19688407
112	0x3dfa1ece	0.12212907
113	0xbe38949b	-0.18025438
114	0xbd865beb	-0.06560501
115	0xbe344ab0	-0.17606616
116	0x3caabaa1	0.020840945
117	0x3edca629	0.4309552
118	0xbe27843a	-0.16359034
119	0xbe0e6dc1	-0.13909055
120	0x3d9cd899	0.076585
121	0xbd86597d	-0.06560037
122	0xbea19b9b	-0.3156403
123	0x3df0dc07	0.11760717
124	0xbeb2c353	-0.34914646
125	0xbe1bebe2	-0.15226701
126	0x3b35b451	0.0027725885
127	0x3e60c0d1	0.21948554
128	0xbe1c36b8	-0.15255249
129	0xbf265758	-0.64977026
130	0xbeb47289	-0.35243633
131	0x3d93e610	0.07221615
132	0xbe9864e5	-0.29764476
133	0xbf0bac46	-0.54559743
134	0xbee6a542	-0.45047957
135	0xbe03869b	-0.12844317
136	0xbccff1fd	-0.025383944
137	0xbef0679b	-0.46954045
138	0x3e2eb8db	0.17062704
139	0x3da069aa	0.07832654
140	0xbeae26e6	-0.34014052
141	0xbdee7155	-0.1164271
142	0x3e7442ff	0.23853682
143	0x3e473f69	0.19457783
144	0x3d98d7ae	0.07463013
145	0xbdd40a90	-0.10353577
146	0xbe54aa2a	-0.20768037
147	0x3eec1fc8	0.46117997
148	0xbe907dd5	-0.28221002
149	0xbe51f6a3	-0.2050424
150	0x3e3e0688	0.18557179
151	0x3de96574	0.11396304
152	0x3d69ee08	0.05711177
153	0xbe3a2989	-0.18179907
154	0xbd2a7142	-0.041611917
155	0xbf0c6261	-0.54837614
156	0x3e0da4e9	0.1383244
157	0x3ecfb801	0.4057007
158	0x3dc1ca7d	0.0946245
159	0x3d62e00c	0.05538945
160	0xbec4dd21	-0.38449958
161	0xbf07400a	-0.5283209
162	0x3ee226ef	0.4417033
163	0x3da04825	0.078262605
164	0x3dd53865	0.10411147
165	0xbe4b51dc	-0.19855446
166	0x3e27dee6	0.16393623
167	0x3ed6d164	0.41956627
168	0xbd9c8c03	-0.076438926
169	0x3ea68e1d	0.325303
170	0xbddbb4b2	-0.10727824
171	0xbf1eafad	-0.6198681
172	0x3f281690	0.6565943
173	0x3ef903b6	0.48635644
174	0x3e81b814	0.25335753
175	0x3e55b042	0.20868018
176	0x3e1667e5	0.1468807
177	0x3eb42654	0.35185492
178	0xbee1ce64	-0.44102776
179	0x3d13076b	0.035895746
180	0xbf0d517e	-0.5520247
181	0xbdc5cfc8	-0.09658772
182	0xbf2a6876	-0.66565645
183	0xbcec7cb7	-0.028868062
184	0xbde71b4d	-0.11284504
185	0xbed1dd20	-0.40989017
186	0xbf15d300	-0.58525085
187	0x3c201d55	0.009772618
188	0xbe32c5f8	-0.17458332
189	0x3c0cb10f	0.008587136
190	0xbf0cf807	-0.5506596
191	0xbeb3197e	-0.34980386
192	0xbdd15115	-0.10220543
193	0x3e39455f	0.18092869
194	0x3e4cff18	0.20019186
195	0x3e9fa0c6	0.31177348
196	0xbe28c033	-0.16479568
197	0xbed11009	-0.40832546
198	0xbe6aac1b	-0.22917216
199	0xbed958bc	-0.4245051
200	0x3df38a7d	0.11891649
201	0x3e43d849	0.19125475
202	0xbd8bfc8d	-0.068352796
203	0xbf086e7a	-0.53293574
204	0x3ec71ffd	0.38891593
205	0xbdc25a63	-0.09489896
206	0x3dd046c8	0.101697505
207	0x3dfd8585	0.123789825
208	0x3eb58275	0.35451093
209	0x3ecb5b9a	0.39718324
210	0x3d0bfef1	0.034178678
211	0xbae955e5	-0.0017802088
212	0xbe16c19d	-0.14722295
213	0xbecb6c8a	-0.39731246
214	0xbeb76501	-0.35819247
215	0xbeec2387	-0.46120855
216	0xbdc0022f	-0.093754165
217	0xbdc26a76	-0.09492962
218	0x3f0035d2	0.50082123
219	0xbee25bb3	-0.44210586
220	0x3f0efd7b	0.5585553
221	0x3eecb243	0.46229753
222	0x3db6dc2f	0.089287154
223	0x3deb6d41	0.11495448
224	0xbe9dd2a0	-0.30824757
225	0xbf02c378	-0.5107951
226	0x3e234722	0.15945104
227	0xbe86de20	-0.26341343
228	0x3ea4f704	0.32219708
229	0xbe5a5fa5	-0.21325548
230	0x3e2a3422	0.1662145
231	0x3ece5a42	0.40303236
232	0x3e549af4	0.20762235
233	0xbee69f66	-0.45043486
234	0x3ec9c30b	0.39406618
235	0xbf40166b	-0.7503421
236	0x3ec269f6	0.37971467
237	0x3e4d3793	0.20040731
238	0x3bbd312f	0.0057736854
239	0xbd4dcc63	-0.050243746
240	0x3f027325	0.50956947
241	0x3a425d16	0.00074143836
242	0xbe4f104c	-0.2022106
243	0x3f0cbc52	0.54974854
244	0xbf0fa182	-0.56105816
245	0xbeb1d3be	-0.3473186
246	0xbe872eb9	-0.26402834
247	0xbec16de5	-0.37779155
248	0x3f1c9869	0.6117006
249	0x3e990cec	0.2989267
250	0xbef83f86	-0.48485965
251	0x3de77aba	0.11302705
252	0xbdbcdb88	-0.0922156
253	0xbe93eca9	-0.28891495
254	0xbe6f964c	-0.23397177
255	0xbe2d6d31	-0.16936184

static_variable_selection.single_variable_grns.target_center.gate_norm.glu.fc.bias f4 [32]
0	0xbe82322e	-0.2542891
1	0xbe232d68	-0.1593529
2	0xbe24bf35	-0.16088565
3	0xbe0ce9d7	-0.13761078
4	0x3e45d4fc	0.19319528
5	0xbe659850	-0.22421384
6	0x3de5a272	0.112126246
7	0xbdf42b42	-0.11922313
8	0xbe2f3456	-0.17109808
9	0x3e8ffe00	0.28123474
10	0x3de23557	0.1104533
11	0x3dbf0d9e	0.09328769
12	0x3dff3331	0.12460936
13	0xbe927927	-0.28608057
14	0x3e57cf63	0.21075206
15	0xbd88198d	-0.066454984
16	0xbe214e68	-0.15752566
17	0xbd8c2b5f	-0.0684421
18	0xbe27100f	-0.1631472
19	0x3e62ad53	0.2213643
20	0x3e0a1562	0.1348472
21	0x3e912719	0.28350142
22	0xbe932725	-0.28740802
23	0xbe5ec75f	-0.21755742
24	0xbe372f44	-0.17889124
25	0x3e4f277d	0.20229907
26	0xbe24ff23	-0.16112952
27	0x3e382d3d	0.17986007
28	0x3e5dce5d	0.21660753
29	0xbd309da7	-0.0431191
30	0xbe4c7636	-0.19966969
31	0xbea5b814	-0.32367003

static_variable_selection.single_variable_grns.target_center.gate_norm.add_norm.norm.weight f4 [16]
0	0x3fa3229f	1.274494
1	0x3f8e7dac	1.1132102
2	0x3f469eea	0.77586234
3	0x3f4a7ccf	0.7909669
4	0x3f99c13f	1.2012099
5	0x3f1bce00	0.60861206
6	0x3f8882a3	1.0664867
7	0x3f662d6a	0.89913046
8	0x3f0ac67d	0.5420912
9	0x3f6cbf54	0.92479444
10	0x3f4820b4	0.781749
11	0x3f79dd70	0.9760351
12	0x3f8fb57b	1.1227258
13	0x3fb94869	1.4475223
14	0x3f4bc74f	0.79600996
15	0x3f76d08f	0.96411985

static_variable_selection.single_variable_grns.target_center.gate_norm.add_norm.norm.bias f4 [16]
0	0xbe99c3b4	-0.30032122
1	0xbddde028	-0.1083377
2	0xbe25045e	-0.16114947
3	0x3d2d4f8c	0.04231219
4	0x3e6b7d42	0.22997001
5	0xbdb9af1f	-0.09066605
6	0x3de4215c	0.11139175
7	0xbe2b5e7b	-0.1673526
8	0x3e47fda3	0.19530348
9	0x3e73ee4c	0.23821372
10	0x3dff80d6	0.124757454
11	0xbc1ef1a0	-0.009701163
12	0x3e3f5fe0	0.18688917
13	0xbee90855	-0.4551417
14	0x3e7067ea	0.2347714
15	0x3e0fee68	0.14055789

static_variable_selection.single_variable_grns.target_scale.resample_norm.mask f4 [16]
0	0xbe7c1a3e	-0.24619386
1	0xbe5db816	-0.21652254
2	0x3e2a9f97	0.16662441
3	0x3d303ca1	0.04302657
4	0xbe707b75	-0.23484595
5	0x3e2a4da1	0.16631176
6	0x3de6c232	0.112675086
7	0xbdc668e3	-0.09687974
8	0xbdad094a	-0.084490374
9	0x3e8e4a0e	0.27790874
10	0x3da59096	0.08084218
11	0x3aff5c45	0.0019482455
12	0xbd93a245	-0.07208685
13	0x3ee20a22	0.44148356
14	0xbe38e0bb	-0.18054478
15	0x3cd8b5bf	0.02645385

static_variable_selection.single_variable_grns.target_scale.resample_norm.norm.weight f4 [16]
0	0x3f4131a1	0.7546635
1	0x3f9164b7	1.1358861
2	0x3f95f9b4	1.1716828
3	0x3f8834c3	1.0641102
4	0x3f438604	0.76376367
5	0x3f97e596	1.1866939
6	0x3f911792	1.1335318
7	0x3f68a072	0.9086982
8	0x3f6a5329	0.9153314
9	0x3f9e0ab1	1.2347013
10	0x3f89155e	1.0709646
11	0x3f692f59	0.9108787
12	0x3f670206	0.9023746
13	0x3fb1e627	1.3898362
14	0x3f485cf6	0.7826685
15	0x3f8982cf	1.0743045

static_variable_selection.single_variable_grns.target_scale.resample_norm.norm.bias f4 [16]
0	0xbe8b617e	-0.27222818
1	0xbe27964c	-0.16365927
2	0xbe3edfb5	-0.18640025
3	0xbd2a9cc9	-0.04165343
4	0x3e6f7e72	0.23388079
5	0xbe2ad86d	-0.16684122
6	0x3dc05641	0.093914516
7	0xbe03c3f8	-0.12867725
8	0xbd9325d4	-0.071849495
9	0x3e768e5f	0.24077748
10	0x3dab710b	0.083711706
11	0x3d170598	0.03687057
12	0x3e1987e7	0.14993249
13	0xbecca7df	-0.39971825
14	0x3e74afe7	0.23895226
15	0xbce2530f	-0.027627496

static_variable_selection.single_variable_grns.target_scale.fc1.weight f4 [8, 8]
0	0x3f52a4f1	0.8228293
1	0xbf7d11d9	-0.9885536
2	0xbf0511fa	-0.51980555
3	0xbf1ab97a	-0.60439265
4	0xbd5bda19	-0.05367479
5	0xbc9de6aa	-0.019275028
6	0xbe3e4954	-0.1858266
7	0xbed0f128	-0.40808988
8	0xbd3de071	-0.046356622
9	0xbf0974c3	-0.5369379
10	0xbee5e650	-0.44902277
11	0x3e211442	0.15730384
12	0x3de351a6	0.110995576
13	0x3f0499ac	0.51796985
14	0xbf77818b	-0.9668204
15	0x3e2ca88e	0.16861174
16	0xbf945038	-1.1586981
17	0x3f6bbe35	0.9208711
18	0x3ef72e56	0.4827754
19	0x3eca155f	0.3946943
20	0xbf750dda	-0.9572426
21	0xbe2c9559	-0.16853847
22	0x3eeed04b	0.4664329
23	0xbdf5b04e	-0.11996518
24	0xbf80c1f4	-1.005919
25	0x3f61aaf9	0.8815151
26	0x3ea17688	0.31535745
27	0x3ef1de17	0.47239754
28	0x3e07f176	0.13275704
29	0xbe0317de	-0.12802073
30	0xbeb721a2	-0.35767847
31	0x3ead7717	0.3387992
32	0x3dec7413	0.11545577
33	0xbf8d77df	-1.1052207
34	0x3f307bfa	0.68939173
35	0xbe5665e3	-0.20937304
36	0x3ebbfcb6	0.3671624
37	0x3f750a56	0.95718896
38	0xbfbc0a7d	-1.4690701
39	0x3f2fc039	0.68652683
40	0x3e6b49d6	0.22977385
41	0x3eee3a5b	0.46528897
42	0x3f1e26bf	0.6177787
43	0x3c1d16a5	0.009587918
44	0x3ef20369	0.47268227
45	0xbf393452	-0.7234546
46	0xbf6a556f	-0.9153661
47	0x3d9814fc	0.074258775
48	0x3f115fe9	0.5678697
49	0xbf34d39b	-0.70635384
50	0xbf3e8d56	-0.7443441
51	0xbf0b087a	-0.5430981
52	0x3f8339ee	1.0252054
53	0xbdbca9d6	-0.09212081
54	0x3e578c34	0.21049577
55	0x3e9ce8ea	0.3064645
56	0x3f06fb9a	0.52727664
57	0xbf5b9c0f	-0.85785
58	0x3a99b70f	0.0011727529
59	0x3eb21cda	0.34787637
60	0xbea31853	-0.31854495
61	0x3cd2be6a	0.025725562
62	0x3f82aa29	1.0208179
63	0x3daafabb	0.08348604

static_variable_selection.single_variable_grns.target_scale.fc1.bias f4 [8]
0	0x3e896d4a	0.26841193
1	0x3e98968f	0.29802367
2	0xbdfc0b7e	-0.123068795
3	0xbe89a278	-0.26881766
4	0x3eb16279	0.3464544
5	0x3eb77e5f	0.358386
6	0x3e9ee9e3	0.31037816
7	0xbdd9557e	-0.106120095

static_variable_selection.single_variable_grns.target_scale.fc2.weight f4 [8, 8]
0	0xbeb6b265	-0.3568298
1	0xbf78990a	-0.9710852
2	0x3f03c4d6	0.5147222
3	0x3cae49be	0.021275397
4	0xbf9fb6d6	-1.2477672
5	0xbfa4235a	-1.2823288
6	0xbeed3400	-0.46328735
7	0x3e14d566	0.1453453
8	0x3c193460	0.009350866
9	0x3f09e8a7	0.53870624
10	0xbdacfdf9	-0.08446879
11	0xbef5ae83	-0.47984704
12	0x3f544032	0.82910454
13	0x3e83f386	0.2577173
14	0x3ef80760	0.48443127
15	0xbf46d41a	-0.7766739
16	0xbf5443df	-0.82916063
17	0xbf62b2ca	-0.8855406
18	0x3ec1e6ea	0.37871486
19	0x3e38576f	0.18002103
20	0xbf897dbf	-1.07415
21	0xbe9997a2	-0.299985
22	0xbeda3d80	-0.42625046
23	0xbec706b7	-0.3887231
24	0xbf563ed2	-0.83689606
25	0x3d28828a	0.041140117
26	0xbe080fbc	-0.13287252
27	0x3e4bc275	0.19898398
28	0x3ed9b8cc	0.425238
29	0xbf02d780	-0.51110077
30	0x3e14218a	0.14465919
31	0xbd7d710b	-0.061875384
32	0xbdab7fd0	-0.08373988
33	0x3b3a54ff	0.002843201
34	0xbb926596	-0.0044676764
35	0xbe9b88a4	-0.30377686
36	0x3e53f7f9	0.20700063
37	0xbeb48598	-0.35258174
38	0x3ea055e8	0.3131554
39	0x3f0908e0	0.5352917
40	0xbcf731a9	-0.030175047
41	0x3e168467	0.14698945
42	0x3cd4fcf0	0.025999516
43	0x3e91cd8e	0.28477138
44	0x3d665f4e	0.056243233
45	0x3e4d4c67	0.20048676
46	0x3edc0c93	0.42978343
47	0x3d45cb75	0.048289735
48	0xbf19b737	-0.6004519
49	0xbd086923	-0.03330339
50	0x3e82d3d4	0.25552237
51	0x3da8471c	0.08216688
52	0xbee9a4ed	-0.4563364
53	0xbe699f54	-0.22814685
54	0xbf8a9a91	-1.082842
55	0x3e528db6	0.20561871
56	0xbef90dd1	-0.48643354
57	0xbeac24e9	-0.3362191
58	0xbf0b263a	-0.54355204
59	0x3e45254b	0.19252507
60	0xbf6905d3	-0.9102451
61	0x3ec0c2a1	0.3764849
62	0xbe4dc040	-0.20092869
63	0x3f91006a	1.1328251

static_variable_selection.single_variable_grns.target_scale.fc2.bias f4 [8]
0	0xbec7d745	-0.39031425
1	0x3e0bd276	0.13654503
2	0xbf10ec53	-0.566106
3	0x3d4fd416	0.05073937
4	0xbbe68cc8	-0.0070358254
5	0x3e08e7b9	0.13369645
6	0xbe1f1d33	-0.15538482
7	0xbcfa14d1	-0.030527504
